AI Chatbot/chatbot_model.pth (torch, 64541 bytes, 6 tensors)

fc1.weight f4 [128, 52]
000000 d4 ae dc bd dd 1e cb bc 3d 35 5b 3c 0f 68 ad bd
       -0.10775533 -0.02479499 0.013379392 -0.08467113
000010 44 a2 44 3d cc 7b 1d 3e f8 0c 17 3e b8 c2 db bd
       0.04800631 0.15379256 0.14751041 -0.10730499
000020 c8 e4 bb bd 05 ac cf 3d 1d bb 13 3e 27 cf 29 3d
       -0.09174496 0.10140232 0.14426847 0.04145732
000030 97 5e 84 3d f1 78 90 bd a0 73 24 3d c3 70 08 3e
       0.06463354 -0.07054318 0.04014933 0.13324265
000040 4c 77 0c 3c 09 65 ad 3d cb c8 d7 3d 58 55 cb 3d
       0.0085733645 0.084665366 0.10536345 0.099283874
000050 83 b7 5f 3e 78 a7 48 3e c9 9d 8a bd c3 1a 96 3d
       0.21847348 0.19595134 -0.067683764 0.07329323
000060 8c 0d b6 bd 4c 4e cb 3d 55 77 26 3d 8e b3 18 3e
       -0.088893026 0.09927043 0.040641148 0.14912245
000070 0b a5 b4 bd 6c 56 02 be b8 03 33 bd 6c b0 c2 bd
       -0.08820542 -0.1272828 -0.04370472 -0.09506306
000080 f4 cb 04 be c0 cc f0 bd b9 fb 04 3d 1d 51 e7 bd
       -0.12968427 -0.11757803 0.032466624 -0.11294768
000090 1a f6 2a bd 4b 5d 22 be d6 1f 18 bd 26 ea a8 3d
       -0.041738607 -0.15855901 -0.037139736 0.08247785
0000a0 20 fa 9a bd 7b f7 df 3d 70 fa 25 bd 60 46 d5 3d
       -0.07567239 0.10935875 -0.04052204 0.104138136
0000b0 96 27 32 bd 16 33 3c bd 38 48 d0 bd 85 df 07 be
       -0.043494783 -0.045947157 -0.10170025 -0.1326886
0000c0 d3 24 9a 3d 0c c8 e1 3d f0 3a 34 3d 52 c0 04 3e
       0.07526555 0.11024484 0.04400152 0.1296399
0000d0 a2 e7 f0 3d 8e 27 de 3d d1 4f fb 3c 57 b7 04 3b
       0.117629305 0.10847388 0.030677708 0.002025088
0000e0 9a 1e 8c bc 04 95 00 3c 03 98 56 3e bf 7a 36 3c
       -0.017104436 0.007848028 0.20956425 0.011137663
0000f0 fe aa 75 3e 17 fc 03 be 14 5c 05 3e 9e f2 48 bd
       0.2399101 -0.12889133 0.13023406 -0.049059503
000100 96 d9 7a bd cf 58 f4 bc 30 c0 ec 3d 20 d5 e6 3c
       -0.061242662 -0.029827503 0.11560094 0.028177798
000110 de 7f 41 3e 66 e5 f5 bd f0 bb 55 bd b0 b2 f5 bd
       0.18896434 -0.12006645 -0.052181184 -0.119969726
000120 73 0d 66 3d e6 11 0f 3d 74 75 4e bd 04 a0 b1 bc
       0.05616517 0.03492918 -0.05040498 -0.021682747
000130 61 09 e0 3d 4e 54 19 bd f8 f5 02 be d1 d0 5e 3e
       0.10939289 -0.037433915 -0.12789142 0.21759345
000140 da c5 11 be 5f a2 9a bb 4e de e7 bd 5f 28 a6 3d
       -0.1423563 -0.004719063 -0.11321698 0.08113169
000150 c9 c5 fb 3d 12 b8 d5 3d 32 5c 6e 3e 4c 34 9c 3d
       0.12293584 0.10435499 0.23277357 0.07627162
000160 27 c5 69 3e b9 5f 84 bd 75 87 fb bd 31 ab 41 bd
       0.22829114 -0.0646357 -0.12281696 -0.0472824
000170 29 d0 61 3d 0e 5e a6 bd b7 f4 f5 bd 4a f5 f4 3d
       0.055130158 -0.08123408 -0.12009566 0.11960848
000180 8d 01 03 be e3 eb 2b 3e ba ca 1f 3e 1e 2d 76 bd
       -0.1279356 0.16789202 0.15604678 -0.06010162
000190 1f 60 f3 3d 2d 85 0e 3d ba 6d e3 3d 67 f5 1b 3e
       0.11883568 0.034794975 0.11104913 0.15230332
0001a0 60 a7 1c bd 50 98 a7 3c d8 14 22 bd e5 3a d5 3d
       -0.03824556 0.02045837 -0.03957066 0.10411624
0001b0 b5 86 47 3e 14 63 4d 3e 80 45 f0 3d 8a 50 fb bd
       0.1948498 0.20057327 0.11732006 -0.12271221
0001c0 ae 84 57 bd 8e 87 71 bd 7c 6d 1a be a3 af af bd
       -0.052616768 -0.058967166 -0.15080827 -0.08578422
0001d0 84 99 d0 bd 86 8b 47 bd da cb 9a 3d ff 9f d8 bd
       -0.10185531 -0.048717044 0.07558413 -0.10577392
0001e0 3b 64 f5 bd 44 1d d0 bd 4a 79 38 3d 74 6b 50 3d
       -0.11982008 -0.10161832 0.045037545 0.050883725
0001f0 59 a2 33 3e da a9 80 3e 53 bc 0b be 74 d3 2b 3e
       0.175424 0.25129586 -0.13646059 0.16779882
000200 62 68 90 bd 8e 61 17 3e 20 bf c2 bd 2d 45 97 bd
       -0.070511594 0.14783308 -0.095091105 -0.07386241
000210 c9 81 06 be e4 3b b4 bd ba 45 14 be ad 6d 9e bd
       -0.13135447 -0.08800486 -0.14479724 -0.07735763
000220 7a b1 fa bd 89 f6 68 3d 67 27 93 bd d0 7b 8b bd
       -0.12240882 0.05687574 -0.0718525 -0.06810725
000230 60 53 9c 3d 2d 7c 2e be ff f8 0b 3e 11 45 07 3d
       0.0763309 -0.17039557 0.13669203 0.03302485
000240 b6 89 95 bd c0 53 d6 3b 7a 22 c0 3c f0 32 9a bd
       -0.07301657 0.0065407455 0.02345394 -0.07529247
000250 39 01 40 3e 3d 92 8b 3d f7 fb a3 bd 57 74 5c 3e
       0.18750466 0.06815002 -0.08007043 0.21528755
000260 34 8e 88 3d 86 8f d0 bd 64 54 9d 3d 80 9c 6d 3c
       0.06667748 -0.10183625 0.07682112 0.014502645
000270 06 4c 5b 3e 3b 4f 0c be b5 0e 70 bb 72 11 b4 bd
       0.2141572 -0.13702099 -0.003662986 -0.0879239
000280 fb f3 31 bd ab 79 db 3c a5 3a 02 be 35 5f 31 bd
       -0.04344557 0.026791414 -0.12717684 -0.043303687
000290 51 29 26 be 5a d7 ff bd 61 51 02 3e 12 fc 13 3d
       -0.16226698 -0.12492247 0.12726356 0.036129065
0002a0 85 55 a0 bc 91 c3 55 bd ae 1a aa bd 5b 83 ef 3d
       -0.019572029 -0.05218846 -0.0830587 0.11694976
0002b0 28 48 95 3d 52 5f f1 bd f0 32 d8 3d e0 00 9f bc
       0.07289153 -0.11785759 0.105565906 -0.019409597
0002c0 ed e2 58 3e b7 c3 29 3e 4a 8d 27 3e 20 87 1f 3e
       0.21180315 0.16578566 0.16362491 0.1557889
0002d0 1a 08 de bc 38 cf 03 3e 37 21 44 3d d0 4b 15 be
       -0.027103473 0.12872016 0.04788324 -0.14579701
0002e0 9f 4a cd bc 48 99 04 3e 5d 1b 76 3e 9e 09 1a 3e
       -0.025059996 0.12949097 0.24033876 0.15042731
0002f0 b1 e8 89 bc 5a d9 fe 3d b2 cb 1b 3d 82 8d bd bd
       -0.016834589 0.124438 0.038036056 -0.09255506
000300 ea 9a 3d be 68 71 c1 3a 60 a7 28 3e 4f d4 40 3d
       -0.18516126 0.0014758529 0.16470098 0.047077473
000310 fd 4e 87 3e 60 f1 14 bd 7f a7 35 3e eb 0f 0b be
       0.2642745 -0.036363006 0.17739676 -0.13580291
000320 40 d0 21 3e 50 5e a3 3c 1e e3 b5 3d 42 d5 3b 3e
       0.15802097 0.019942433 0.0888121 0.1834307
000330 d0 e8 12 bd dc b2 40 3e fc b5 03 be 5a 00 bd bc
       -0.03586656 0.1881823 -0.1286239 -0.023071457
000340 40 ec f4 bd 4c f2 b8 3d b4 09 19 3d 08 93 be bd
       -0.119591236 0.090305895 0.03736277 -0.09305388
000350 5c 3a 18 3d 72 85 00 3e 4d 10 b9 bd 64 ef 64 3c
       0.03716503 0.12550905 -0.09036312 0.013973091
000360 f3 1f dd bb 1b 64 b9 bd 83 16 f2 b9 1c 91 db ba
       -0.0067481934 -0.09052297 -0.0004617461 -0.001675162
000370 f4 44 19 3d a5 14 44 3e ad 54 0a be d7 ae fb 3d
       0.037419274 0.191485 -0.13508864 0.122892074
000380 7f 79 8c 3d ba 4a a8 3d ac 14 cb 3d 55 da 0a bc
       0.06859111 0.08217378 0.09916052 -0.008474906
000390 07 8a 32 3c 27 0e b2 3d 28 25 20 3e b0 2c 3e bd
       0.010897166 0.086941056 0.15639174 -0.046429336
0003a0 54 9d b6 3c 05 7a b6 bd 8e d2 b1 3d c2 93 a2 bd
       0.022291817 -0.08909992 0.08682738 -0.07938339
0003b0 4d 82 0c be 8c 22 2a be 93 43 2d 3d a4 80 ce 3c
       -0.13721581 -0.16614741 0.042300772 0.025207825
0003c0 ae c5 0a 3b 98 6d 3d bd 9d 87 01 be c9 b6 ae bc
       0.0021174955 -0.046247095 -0.12649389 -0.021327393
0003d0 bc 4c e4 bd b8 5d c2 3d bd 0b b7 bd cc fe 5c 3d
       -0.111474484 0.09490532 -0.08937786 0.05395393
0003e0 21 b9 d4 bd b6 8d 3a 3d d9 3f 81 bd b2 5d 0f bd
       -0.10386873 0.045545302 -0.06311006 -0.035001464
0003f0 d4 25 c2 3d 7c c0 7f bc 57 68 a5 bc 01 01 37 3e
       0.094798714 -0.015609857 -0.020191355 0.17871477

fc1.bias f4 [128]
000000 53 a6 60 bc 49 a5 47 3d ea d3 bd 3d b4 c3 0a 3e
       -0.01371153 0.048741613 0.09268935 0.13551217
000010 f6 c1 50 3e da f7 2f 3d 31 a2 7c bd 53 4e 56 3e
       0.2038649 0.04296098 -0.061678115 0.20928316
000020 28 96 e9 3d 5e ad 03 3e 44 17 0e 3e c0 9b 2d 3e
       0.11405593 0.12859103 0.13876063 0.16953945
000030 3c 15 70 3d 4e 63 31 3e 98 a6 2a 3c a3 e2 53 3e
       0.058614 0.17323038 0.010415696 0.20691924
000040 95 a7 11 3e a1 2c dc 3d bc a9 7d 3e 99 98 23 3e
       0.14224084 0.107507 0.2477178 0.1597618
000050 74 40 85 3c 27 09 57 3e 0c 92 b9 3d d3 6f 34 3e
       0.016266085 0.20999585 0.09061059 0.17620783
000060 9f 94 2b 3d 26 f4 bf 3d a1 c3 a0 3d 1f 30 12 3d
       0.041889783 0.093727395 0.07849813 0.035690423
000070 02 05 a4 3d 2c a8 19 3e 86 16 4b 3e be d0 16 ba
       0.08008768 0.15005559 0.19832811 -0.0005753151
000080 e3 09 49 3d 21 66 ad bc f2 00 d5 3d 7c c7 4a 3e
       0.049081694 -0.021166863 0.10400571 0.1980266
000090 74 4e 4f bd 66 f8 6c 3e f4 d0 1a 3e 4c 81 a6 3d
       -0.050611928 0.23141631 0.15118772 0.0813013
0000a0 7d 12 be ba 16 38 43 3e 8c 9b 9d 3d 7b 40 e4 3c
       -0.001450136 0.19064364 0.07695684 0.027862778
0000b0 db a0 c6 3d 1b 6b 4f 3d d3 73 d5 3d e6 d6 00 3e
       0.096986495 0.050639253 0.10422482 0.12581977
0000c0 f7 57 81 3d 63 53 44 3b 72 06 79 bd 71 95 ef 3d
       0.06315606 0.002995693 -0.060797162 0.116984256
0000d0 6c 81 23 3e df 05 d4 3c ba 7b 6d 3e 42 c7 d5 3d
       0.1596734 0.025881706 0.23191729 0.10438396
0000e0 cf 4f d9 3c 56 da 52 3d d2 b0 46 3e 4a bc 06 bd
       0.026527314 0.051477753 0.19403389 -0.03289441
0000f0 bc bb ae 3c 55 36 93 3e ee 0a 9e bd 7a c5 4a bd
       0.021329753 0.2875239 -0.077169284 -0.049504735
000100 f5 0f a5 bc 96 90 89 3d 45 2d 88 bd c6 f7 cf 3d
       -0.02014921 0.06717031 -0.066492595 0.10154681
000110 39 71 36 3e 40 ac ba bb cc 20 ae bc 22 e4 cd bb
       0.17816629 -0.0056968033 -0.021255873 -0.006283299
000120 c1 16 3d 3d 4d 26 20 3e 81 31 27 3e d4 39 2a 3e
       0.046164278 0.1563961 0.16327478 0.16623622
000130 a6 ed 94 3d e8 e2 5e 3c fd 98 35 3e c1 e7 4a 3d
       0.0727189 0.013603903 0.17734142 0.049537424
000140 69 6e 46 3e 9d d3 21 3e 07 53 cd bc 78 d8 6a 3e
       0.19378056 0.1580338 -0.025064005 0.22934139
000150 9d b1 91 3d 56 a9 26 3e 4f a2 5b 3d 21 03 94 3d
       0.07113955 0.16275534 0.053621586 0.07227159
000160 d2 76 a0 3d ca ca 62 3d a4 9c 70 3e de 48 fe 3d
       0.07835163 0.055369176 0.23497254 0.12416242
000170 38 90 b4 3d f1 56 77 3e 0f ee 80 3e aa 60 71 3e
       0.0881657 0.2415426 0.25181624 0.2357203
000180 76 78 06 3c d7 d9 41 3e 8d f5 27 3e 0d f3 04 bd
       0.008207431 0.18930756 0.16402264 -0.032458354
000190 31 bf 44 3c 6e d7 12 3d f7 bb 38 3e 15 42 eb 3d
       0.012008474 0.03584998 0.18040453 0.114872135
0001a0 21 db 14 3e 0c 19 0d be 45 2b 8d 3e f9 ba 6a 3d
       0.14536716 -0.13779086 0.27572075 0.057307217
0001b0 8f e7 fe bc 05 ef 14 3e e7 b5 3c 3e 1e 78 3b 3e
       -0.031116275 0.14544304 0.18428765 0.1830754
0001c0 10 45 00 3e 07 6d 51 bc 97 84 28 3e 75 44 89 3c
       0.12526345 -0.012782342 0.16456829 0.016756276
0001d0 0b fa 83 3c cf c1 00 3c bf 39 10 3e 17 b3 41 3e
       0.01611044 0.007858708 0.14084528 0.18915974
0001e0 ee 2a 6f 3d 96 ad c1 3d 58 50 6f bd 1c fc f7 3d
       0.05839055 0.09456937 -0.05842623 0.12108633
0001f0 55 46 06 3e ad a2 c8 3d 93 47 11 3e d1 c2 fe 3d
       0.13112767 0.09796653 0.1418746 0.12439502

fc2.weight f4 [64, 128]
000000 15 1e 6d 3d 9d 0e 1e 3e 6e 65 12 bc c5 f0 a4 bd
       0.057890017 0.15435262 -0.008935316 -0.08053736
000010 26 96 b0 bb 83 4d e5 3d b4 31 01 bd 96 bf 2d 3d
       -0.005388993 0.11196425 -0.03154154 0.04241904
000020 4e 92 96 3d 15 a1 b7 3c 11 19 08 3c 12 4b d7 bd
       0.07352124 0.022415677 0.008306758 -0.105123654
000030 a9 63 ed 3d 1b f6 03 3e f9 53 f1 3d 49 1c 38 3d
       0.11591274 0.1288685 0.11783595 0.04494885
000040 1a 6e 1b 3e 05 e1 cb 3d fa f5 b5 bc c3 a2 b1 3a
       0.15178719 0.099550284 -0.022212017 0.0013552535
000050 a0 57 e2 3d d7 1b 49 bd 4b df 98 bd 4e 3b 91 bd
       0.110518694 -0.049098816 -0.07464465 -0.070913896
000060 1e af 3c bc ca b5 6b bd 6e 87 a9 bd 03 f3 b1 3d
       -0.011516361 -0.057546414 -0.08277784 0.08688929
000070 ab 6e c7 bd 83 fd 9a bd 1d bb dc 3d aa 2f 0d 3e
       -0.09737905 -0.07567885 0.107778765 0.13787714
000080 3d c3 71 bb fa ec aa 3d 79 33 44 3e b0 ae 75 bd
       -0.0036890053 0.08345981 0.1916026 -0.059981048
000090 19 1b 0f 3e 96 0f 8c 3d c4 57 59 3c d5 51 8a 3c
       0.1397518 0.0683891 0.013265554 0.016884724
0000a0 bb 64 a3 bb 48 20 46 bd b8 b1 44 bd 66 bd 46 3e
       -0.0049863732 -0.04837063 -0.04802105 0.19408187
0000b0 62 fe 91 3c 9a fa 39 3c 34 97 52 3c e3 ce 79 bc
       0.017821494 0.011351252 0.012853432 -0.01524708
0000c0 05 f6 33 3c 17 84 0a bd bd 04 b5 3d 08 3a 20 3d
       0.010983949 -0.033817377 0.088387944 0.039117843
0000d0 05 fe 61 3d fc ee 22 3e 23 b5 aa bb c4 84 e2 bd
       0.055173893 0.15911478 -0.0052095815 -0.11060479
0000e0 aa 08 1c 3e 67 6c 18 3e b5 bd 4e 3d cb 4c d1 3d
       0.1523768 0.14885102 0.050473887 0.10219725
0000f0 49 6f 7e 3d 27 41 ae 3d 54 67 4f bd e7 a1 07 3c
       0.06211785 0.085085206 -0.05063565 0.008278347
000100 22 1c 37 3e e0 2d 6d 3d 51 a1 04 3d 43 97 f7 3d
       0.17881826 0.057905078 0.032380406 0.12089398
000110 3b cb 89 bd 9c 65 db 3d 52 8c 16 3e 97 b8 02 3e
       -0.06728216 0.1071274 0.14701965 0.12765728
000120 b8 e3 a9 bb c7 fb f8 bd 31 c0 93 3c 30 f2 8e 3d
       -0.005184617 -0.12157398 0.01803598 0.06979787
000130 6f d8 25 3e 85 7b be 3d 8a ef d1 ba 43 3c d3 3c
       0.16195844 0.09300903 -0.0016016823 0.025785571
000140 72 1d af 3c 4a 06 12 3e 44 46 04 bd 86 27 65 bd
       0.021376345 0.14260212 -0.032293573 -0.055945896
000150 91 6d 6b 3b 24 02 92 bc 1a 72 da 3b b8 72 27 3e
       0.003592346 -0.017823286 0.006666434 0.16352355
000160 ae 84 d3 3c 6d a4 57 3d a0 72 ec bc 3d 5e b1 bc
       0.025820103 0.052647043 -0.028863251 -0.021651382
000170 23 47 82 bd 0b 3f d6 3c bf 33 ba bd 6d ce 53 bd
       -0.063612245 0.026153108 -0.09091901 -0.051710535
000180 b3 44 c4 3d f3 eb b7 bc d6 34 37 3d 08 42 fa 3d
       0.09583416 -0.022451377 0.044728123 0.12219626
000190 e1 d2 26 be bb 25 0d be 6c 91 0f bb d3 e2 84 bd
       -0.16291381 -0.13783924 -0.0021906747 -0.06488576
0001a0 7e 05 bb bd 90 0c 57 bc fc 6d dd bd 51 ca 24 3d
       -0.09131907 -0.013125554 -0.108119935 0.040232006
0001b0 75 d0 3f 3d 58 06 50 bd 4f 08 49 bc fa 23 08 be
       0.04682966 -0.0507873 -0.012270047 -0.13294974
0001c0 41 25 0a 3e 52 86 fe 3d 57 f6 8c 3d 53 11 a2 bd
       0.13490774 0.12427963 0.06882923 -0.079134606
0001d0 56 b4 10 3e b1 c8 40 bd 6d 26 ba 3d 09 a8 9e 3d
       0.14131293 -0.047066394 0.090893604 0.07746894
0001e0 d0 92 e4 3d 5a be 09 3d db db 93 3d 85 52 e0 3d
       0.11160815 0.0336288 0.072196685 0.10953239
0001f0 2a 9a c0 3d d7 5b 21 3c 1e b3 ad bc a2 b6 44 3d
       0.094044045 0.0098485565 -0.021203574 0.048025735
000200 86 54 a2 3d 9c 8e 24 bd d9 6c 1b bb 8f dd 04 bd
       0.07926278 -0.040175065 -0.0023716001 -0.032437857
000210 00 5a 22 3d 70 8b b7 bd 03 5b eb 3b 17 0f 8b 3d
       0.039636612 -0.089621425 0.0071824803 0.067899875
000220 fc 76 27 bd d3 db 9d 3d 93 5e 13 bd f5 11 a7 bc
       -0.040884957 0.07707944 -0.035978865 -0.020394305
000230 b6 69 3f bc ba 86 ca bc 86 85 dd bc 5c 5e 09 3e
       -0.011682918 -0.024722446 -0.027041208 0.13414901
000240 fe 90 93 3d 9c 25 81 3d 54 50 2a 3d e1 e8 a5 bd
       0.072053894 0.063060015 0.041580513 -0.08101059
000250 a8 2b 89 bd e9 f4 95 3d 5c 8e eb 3d ea 11 0c 3e
       -0.0669778 0.073221035 0.11501762 0.13678709
000260 a2 5b 60 bd 7a b4 a2 3d e0 40 82 3d 72 92 44 bd
       -0.054774888 0.079445794 0.0636003 -0.047991224
000270 89 a9 8c bd 14 6b 8b 3d 53 76 69 3d 4a 50 69 bd
       -0.06868274 0.06807533 0.05699761 -0.056961335
000280 ac 72 36 bd 5b 21 86 3b 30 82 a2 3d 3d 9e de 3d
       -0.044542953 0.0040933318 0.079349875 0.10870025
000290 51 64 25 bd 44 de a3 3b e0 85 1a 3e 3f b8 60 bd
       -0.040378872 0.0050008614 0.15090132 -0.05486321
0002a0 4b 6c 3f bc ef dd c1 3d 24 76 59 bc 78 aa cb 3d
       -0.011683534 0.094661586 -0.013272796 0.09944624
0002b0 b4 0b 2b 3e 44 a9 48 3d 2c 1a fd bd 6c 53 f4 3c
       0.16703683 0.04898955 -0.123585075 0.029824935
0002c0 8e 86 0c bd 6a fb 14 3e 8f fd 1d bc 8e 75 aa 3c
       -0.03430801 0.14549032 -0.009642973 0.020808008
0002d0 e6 48 33 bd de e8 ba bb cb e9 96 3d 78 85 02 3d
       -0.043770693 -0.0057040295 0.07368811 0.031865567
0002e0 92 29 97 bd 49 73 f2 3b aa d6 78 3d de bb ca bd
       -0.07380976 0.007398997 0.060751595 -0.09899114
0002f0 f6 4d 63 3d 20 e8 a5 3d 32 c0 96 bd 86 18 4d bd
       0.05549427 0.08100915 -0.07360877 -0.050072215
000300 a3 fb 0d bd e4 ce cc bd 78 dc 08 bd 0e 25 8b bd
       -0.034663808 -0.10000399 -0.03341338 -0.06794177
000310 f2 36 2f 3e 68 e5 85 bd 8b a9 33 bd 8e f9 b7 bd
       0.17110804 -0.065378964 -0.04386286 -0.08983146
000320 fb 2c 8d 3d 49 88 02 3d 4e 84 2a 3d 04 1c 95 3d
       0.06893345 0.031868253 0.04163008 0.07280734
000330 be 24 e2 bc 67 c0 20 bd 2c db 8a 3d be 3b 0a be
       -0.02760541 -0.03924599 0.06780085 -0.13499352
000340 56 6c c2 3d 1b 52 f4 3c ac 94 99 3d 61 d6 6d 3d
       0.0949332 0.029824307 0.0749906 0.058065776
000350 33 9d 1c 3e 82 9f 10 3e 99 8c da bb de a4 30 3d
       0.15294342 0.14123347 -0.0066695926 0.04312598
000360 e7 58 1c 3e 3e 9e 2a 3e 03 91 ad 3c 8d 81 b8 3d
       0.15268289 0.16661927 0.021187311 0.09009085
000370 e2 ca 56 bd 75 ad f7 3d 85 62 03 3d 7d b7 63 3d
       -0.052439578 0.12093631 0.032076377 0.05559491
000380 c9 5e 2c 3d 47 87 1a 3e da 5c db 3d a8 52 94 3d
       0.04208258 0.15090667 0.107110694 0.07242328
000390 a9 c6 02 bd 4e 88 ca 3d a8 10 a5 3c 6a 2b 2d bc
       -0.03192774 0.09889279 0.020149544 -0.010569433
0003a0 f9 b9 00 3e 68 d0 1a bd 6d 7f ec 3d 90 cd 4b 3d
       0.12570943 -0.037796408 0.11547742 0.049756587
0003b0 83 9f 4e 3c b7 09 0c 3e 69 24 b5 bc 1f 10 52 bd
       0.012611273 0.13675581 -0.022112088 -0.051284906
0003c0 3d 3e b7 3c fa 96 dd b9 fb 0b 44 bd 10 e9 23 be
       0.022368545 -0.0004226489 -0.047862988 -0.16006875
0003d0 2c 0a 3a bb 1b 46 e2 3c f6 30 95 bd 46 8a c6 3b
       -0.002838741 0.02762132 -0.07284729 0.006058964
0003e0 b5 fc 58 bb 1f 11 e9 3d e9 b6 53 bd 3f fc e9 bd
       -0.003310961 0.11380219 -0.05168811 -0.11425065
0003f0 26 d8 36 3c b2 9a 18 3d 9d 41 4e 3d 13 2d fe 3c
       0.011159932 0.037256904 0.050355542 0.031027352

fc2.bias f4 [64]
000000 13 96 4e 3a 89 e9 a1 3d 2c 10 86 3d 99 7e dd 3d
       0.0007880639 0.079058714 0.06546053 0.10815162
000010 09 28 a7 3d 24 d5 58 3d 6a 32 73 3d d9 2d 74 3d
       0.08161933 0.05293764 0.05937425 0.059614036
000020 7a 31 28 3c 1d 1b 04 3d 22 aa bf 3d 05 76 4d bc
       0.010265702 0.03225242 0.09358622 -0.012540345
000030 b3 05 99 bb 04 8a 5d 3c db ee 86 3d de c6 5e 3c
       -0.004669869 0.013521675 0.06588527 0.013597218
000040 3e a4 57 bd d3 41 9d 3d e6 e3 ab 3d 6d 8f 93 3d
       -0.052646868 0.076785706 0.083930776 0.07205091
000050 3f 9b e6 3d 0b c0 d8 3d f9 2f 20 3e b4 d0 a0 3c
       0.112600796 0.10583504 0.156433 0.019630767
000060 a8 98 e3 3d a5 ce e8 3d 17 3d 84 3d 97 58 16 3d
       0.11113101 0.11367539 0.064569645 0.03670558
000070 3a 0d 52 3d c5 fa b0 bc 0b 75 dc 3d d3 55 2d bc
       0.051282145 -0.021603951 0.10764512 -0.010579544
000080 15 6f e7 3c 39 87 da 3c b8 c6 30 3d 95 5b 81 3c
       0.02825121 0.026675807 0.043158263 0.01579074
000090 19 24 87 3c 96 24 11 bd 99 00 27 3e 7b ae 90 3d
       0.016496705 -0.03543528 0.16308822 0.070645295
0000a0 e6 5c 70 3c df dd 18 bc e4 91 60 3d a2 04 1d 3e
       0.014670586 -0.009330242 0.054826632 0.15333799
0000b0 1b 3a 58 3d 75 25 12 3d cc c6 c8 3d af f6 5e b9
       0.05278979 0.035680253 0.098035425 -0.00021263467
0000c0 8c 64 9a 3c ad 47 d6 bc c9 b1 95 3d 11 71 1d 3d
       0.018846773 -0.026157225 0.073093005 0.038437907
0000d0 28 a1 a7 3d ba 61 80 3d 05 4e 2b 3c f6 5f 77 3d
       0.08185035 0.0626864 0.010455613 0.06039425
0000e0 1a c7 42 3e 80 66 41 3d d0 a0 ba 3c 2b 9a c6 3d
       0.19021264 0.047216892 0.02278176 0.09697374
0000f0 e4 55 00 3d 96 73 ba 3d 9d 18 0c 3e 27 b6 8d 3d
       0.03133191 0.091040775 0.13681264 0.069195084

fc3.weight f4 [5, 64]
000000 35 6d 85 be e5 0c 97 3d 48 c5 53 3d 8c 94 24 be
       -0.2605988 0.07375506 0.051701814 -0.16072291
000010 c4 e4 42 3e 38 a0 45 3c 21 51 30 3e 8d 3f d7 3d
       0.1903258 0.012062125 0.17218448 0.10510168
000020 ba ec 2e 3e dc 9a 81 bc 51 3b 8c 3e 95 ba 04 be
       0.17082492 -0.015820913 0.27389005 -0.129618
000030 5e ea c9 3d 56 f1 99 3d bf 75 4f 3e 9e 2c f2 3d
       0.09859155 0.07516734 0.2025976 0.11824916
000040 c7 62 70 be a6 e6 c7 3d 8f ab 19 3e 7d 47 e2 bd
       -0.2347518 0.097607896 0.1500685 -0.110487916
000050 28 53 93 bb e4 57 2b 3e f5 13 f5 3d 7b 56 85 be
       -0.004495997 0.16732746 0.11966697 -0.26042542
000060 da 3d 11 be 8a 39 18 3e f2 8d 05 3e 5e ed 52 3a
       -0.14183751 0.148657 0.13042429 0.0008046235
000070 28 91 7e be 2d ef b1 bd 1a 71 bd bd 95 06 5e be
       -0.2486006 -0.08688197 -0.09250088 -0.21682198
000080 4d 90 26 3e 07 89 b1 bd 41 a0 2c be 5e 6d 82 3e
       0.16265984 -0.08668714 -0.16858007 0.25474066
000090 a1 eb 5e be 91 8a a4 be 2c 94 2a 3e a8 88 f0 bd
       -0.21769573 -0.32136968 0.16658086 -0.11744815
0000a0 2d 6b fa 3d f7 44 2f be 30 5c 38 bd 87 00 15 3d
       0.122274734 -0.17116152 -0.04500979 0.036377456
0000b0 d6 22 5e be 28 9b 4b be 7f 9e 54 bd ea 60 75 be
       -0.21692976 -0.19883406 -0.051908966 -0.23962751
0000c0 31 e7 86 be c5 4e 3d be af 90 16 3c ba 19 22 be
       -0.2634826 -0.1848708 0.009189769 -0.15830126
0000d0 27 ec 24 3e fa e3 65 bd 4f 77 0a 3e 6b c3 37 3e
       0.1610571 -0.05612562 0.13522075 0.1794564
0000e0 7e 69 99 3d 3a ac 0e be 46 ed a9 bd 92 e5 61 bd
       0.07490824 -0.13932887 -0.082972094 -0.055150576
0000f0 35 21 31 bd 15 c1 77 3e 86 57 2e be dd 3a 25 3e
       -0.04324456 0.24194749 -0.17025575 0.16135736
000100 d6 72 be bc c3 4a 5c 3e 2c 7a bb bd c2 8f 7a 3e
       -0.023248117 0.21512894 -0.09154162 0.24468902
000110 02 b5 c3 3d 10 dd 82 3d ed 64 df bd fb 2b 3d bd
       0.09556009 0.063898206 -0.10907922 -0.04618452
000120 c2 f1 3f be f9 8d 9f be 96 5b 21 be 88 f2 26 be
       -0.18744567 -0.31163004 -0.15757594 -0.16303456
000130 0b d0 2c be 95 96 14 be 1d 5c 8c be e6 bb 6d be
       -0.16876237 -0.14510567 -0.27414027 -0.23216209
000140 c3 b4 c5 3d df 37 9a be cb 60 71 3d 78 56 3f 3e
       0.09653618 -0.3012075 0.0589302 0.18685329
000150 96 3f 75 be b2 99 28 3e ab ac c9 3d 96 40 42 be
       -0.23950037 0.1646488 0.09847387 -0.1896995
000160 59 42 7e 3e 08 09 27 3e 23 9e 98 be 60 02 14 3e
       0.24829997 0.16312039 -0.2980815 0.14454031
000170 43 d4 58 3e 63 04 02 3e 84 08 e7 3d f7 3c 27 be
       0.21174721 0.12696986 0.11280921 -0.1633185
000180 ef 08 bb bd f8 2d 02 be 4e 1a 33 3e 89 ae 10 be
       -0.09132563 -0.12712848 0.17490503 -0.1412908
000190 93 71 8f 3c c0 55 86 be fc ca 16 3e f1 05 2a be
       0.017510211 -0.26237297 0.1472587 -0.16603829
0001a0 b1 6d 49 bd ab 67 8a be 56 fc 1f bd fb be 48 3e
       -0.049176876 -0.27032217 -0.039059006 0.19604103
0001b0 70 9b 3f 3d 50 a5 25 be 30 11 00 3d 4e f5 82 3e
       0.046779096 -0.16176343 0.03126639 0.25577778
0001c0 ae 67 56 3e e2 23 1b 3d 8b 1e 00 3c e1 b8 80 be
       0.20937988 0.037876017 0.007819782 -0.2514105
0001d0 c4 42 3d 3e ef 20 14 3e fd d8 fb bd ba 57 18 3c
       0.184825 0.14465688 -0.122972466 0.009298259
0001e0 bc e2 24 3e 38 8a bc be 18 71 07 be 40 b6 57 3e
       0.16102117 -0.36824203 -0.13226736 0.21065617
0001f0 16 80 28 3e de 90 bb bd 8d e5 1c 3e e9 6e da bb
       0.16455111 -0.091584906 0.15321942 -0.0066660536
000200 a0 52 82 3d 15 0c 90 be f7 10 8e bd a0 9c 32 bd
       0.06363416 -0.28134218 -0.069368295 -0.0436064
000210 a0 e2 20 bd 28 20 50 3e cb 40 0f 3e a2 13 da 3d
       -0.039278626 0.20324767 0.1398956 0.10648276
000220 e1 b7 87 be 9c c6 2d 3e 0c 3a ac 3d 36 ba 3b be
       -0.26507476 0.16970295 0.08409509 -0.18332753
000230 08 97 80 be 1f 2a 3b 3d 8e eb 7a be e2 2a 69 be
       -0.25115228 0.045694467 -0.2450392 -0.22770265
000240 80 63 27 be c8 52 b1 3d 2f 03 e3 3d 8b 64 c0 bd
       -0.1634655 0.086583674 0.110845916 -0.09394177
000250 3e db 7a 3e 9b ed de 3d ca 3b 90 be bb 3c 50 3e
       0.24497697 0.108851634 -0.28170615 0.20335667
000260 9e c5 62 be 9e f6 6b be 6f e5 2c 3e 9f 95 86 be
       -0.22145697 -0.23043296 0.16884397 -0.26286027
000270 dc f2 6e be 18 4f a5 be 8e 33 99 bd e3 dc 05 3e
       -0.23334831 -0.32286906 -0.074805364 0.13072543
000280 7d e7 5e 3d ae 8f 24 3d 30 37 44 be 85 d0 04 be
       0.054419983 0.040176086 -0.19161677 -0.12970169
000290 2f 2c 83 3e c9 75 17 3e 1e e2 c3 3d f4 69 99 bd
       0.25619647 0.14791025 0.09564613 -0.07490912
0002a0 7f 4e c9 3c 3e 0e 31 3e 8b 31 60 bd a6 cc 53 be
       0.024573563 0.17290589 -0.054734748 -0.20683536
0002b0 77 c5 07 be ec 83 aa 3d 14 95 e9 3c 43 69 ae 3d
       -0.1325892 0.08325943 0.028513469 0.08516171
0002c0 ad e9 1a be 89 96 63 be 9c d2 db 3c b7 03 10 be
       -0.15128203 -0.22225393 0.026833825 -0.14063917
0002d0 b0 5a 85 be 20 b1 91 be f5 ba 11 3e 18 e1 fa 3d
       -0.26045752 -0.28455448 0.14231475 0.122499645
0002e0 2c d5 82 be 7a 40 47 bb f1 8e e8 3d e9 4f 05 be
       -0.25553262 -0.0030403421 0.11355389 -0.13018765
0002f0 a1 07 41 be dc ae c9 bc 78 dc 94 be b7 e2 65 be
       -0.18850566 -0.024619512 -0.29074454 -0.22449766
000300 d0 35 60 3e db c8 66 be 42 61 5e bd 18 ba 0e be
       0.21895528 -0.22537558 -0.05429197 -0.13938177
000310 0e 53 f1 bd fc ec f7 bd 61 1d 4b be cb d9 64 3d
       -0.117834195 -0.12105748 -0.19835426 0.055871766
000320 c2 c5 13 3e f0 10 26 3e 0c 8d f0 bd 50 57 08 bb
       0.14430907 0.16217399 -0.117456526 -0.0020803995
000330 5a 1c 73 be 74 75 3b 3e bc fd d4 bd 9e e0 fa bd
       -0.23741284 0.18306524 -0.103999585 -0.122498736
000340 6f d7 01 3e 8e 2a 2d 3d 83 be dd 3d e4 28 24 3e
       0.12679838 0.04227691 0.10827353 0.16031224
000350 2a d0 84 be 3f d2 77 be 02 b0 35 3c a5 e0 d1 3d
       -0.25940067 -0.24201296 0.011089327 0.10247926
000360 23 0c 6d be f7 39 29 bd 93 56 a8 3d 8e c7 a2 bc
       -0.23149161 -0.041315045 0.08219638 -0.019870546
000370 19 ca c9 3d 8c cb 0b 3e cf c1 72 3e fa 67 d0 3d
       0.09853 0.13651866 0.23706745 0.10176082
000380 85 be 32 be 45 9f 6b 3e d3 7e fd 3d e5 0c ca bd
       -0.1745549 0.23009975 0.123777054 -0.09865741
000390 81 d3 ec bd fc 33 ac 3d 4f fe 35 be fc b6 46 3e
       -0.11563779 0.08408353 -0.17772792 0.1940574
0003a0 79 cc da bd e3 cf 47 be 94 0a 6b 3d 66 04 a3 bd
       -0.10683531 -0.19512896 0.057383135 -0.07959823
0003b0 74 1f 22 3e 26 b7 95 be 53 cd 9d be c4 a9 8a bd
       0.15832311 -0.29241294 -0.30820712 -0.067706615
0003c0 25 38 c2 3c aa 43 18 3e 25 70 ad be 7e 32 48 3e
       0.023708412 0.14869562 -0.33874622 0.19550511
0003d0 59 89 9c bd bd 9e 2d be 13 7e e5 3d e0 9d 00 3e
       -0.076433845 -0.16955085 0.112056874 0.12560225
0003e0 eb f2 96 be 58 cc 14 be b0 55 bb bd 48 13 7c be
       -0.29482207 -0.14531076 -0.09147203 -0.2461673
0003f0 11 da 93 be 00 34 30 be d2 a4 0b 3d 7c 3b 31 3d
       -0.2887731 -0.17207336 0.03409273 0.04326962

fc3.bias f4 [5]
000000 7e bc 19 3e ae eb e4 3d 4f a2 bc 3d c1 40 31 bb
       0.1501331 0.11177765 0.092106454 -0.0027046653
000010 b9 9f ba 3d
       0.09112496
